best_model.pth (torch, 46370 bytes, 27 tensors)

convblock1.0.weight f4 [8, 1, 3, 3]
0	0x3dd84ad3	0.105611466
1	0x3dc765e0	0.09736228
2	0xbe090bc5	-0.13383396
3	0x3dfb34f2	0.12265958
4	0xbc894ba9	-0.01675971
5	0xbe235f9e	-0.15954444
6	0xbdbbb37f	-0.091650955
7	0xbe4c83de	-0.19972178
8	0xbdf9f4eb	-0.122049175
9	0x3d820d09	0.063501425
10	0x3dce2c54	0.10067049
11	0x3e2de6e3	0.16982608
12	0x3cde0036	0.02709971
13	0x3c252c9e	0.010081438
14	0x3d8f6b99	0.070029445
15	0xbe853087	-0.26013586
16	0xbe2d14ff	-0.1690254
17	0xbe2b90b1	-0.16754414
18	0xbe27b055	-0.16375859
19	0xbe3ddfd3	-0.18542413
20	0xbdff0d97	-0.12453764
21	0x3d8dcc29	0.06923706
22	0xbcfa0335	-0.030519107
23	0xbe523e88	-0.20531666
24	0x3c711f4a	0.014716933
25	0x3dea6f19	0.114469714
26	0xbdfc8c9b	-0.12331506
27	0x3dba71b5	0.09103719
28	0x3d5dc239	0.054140303
29	0xbdd9c3e8	-0.10633069
30	0x3e1ca0e2	0.15295747
31	0xbd9efc9a	-0.07763024
32	0xbe54e65e	-0.20791003
33	0x3e8845b6	0.26615685
34	0x3da429f6	0.08015816
35	0xbcec9e71	-0.028884144
36	0x3a35e386	0.00069385057
37	0x3d4bde3b	0.049772482
38	0x3e21a7a3	0.15786605
39	0xbdba3a45	-0.09093145
40	0xbdcf4fa9	-0.10122616
41	0x3e2b83db	0.16749518
42	0xbe3a4ab6	-0.18192562
43	0xbdf68975	-0.120379366
44	0x3e52ea4c	0.2059719
45	0x3e32d14d	0.17462654
46	0xbde1f2cf	-0.1103264
47	0xbe875ad0	-0.26436472
48	0x3cda39d1	0.026638897
49	0xbd90fcb4	-0.07079449
50	0xbd8ec509	-0.06971175
51	0x3cb4ecf5	0.022085646
52	0x3db78cfe	0.08962439
53	0x3eb6ef9d	0.35729685
54	0xbe15118e	-0.14557478
55	0xbe0ae8a9	-0.13565315
56	0xbd03ffed	-0.03222649
57	0xbe26a288	-0.16272938
58	0xbd3f5c9d	-0.046719182
59	0x3dc1da6c	0.09465489
60	0x3da15349	0.078772135
61	0x3dc64587	0.0968123
62	0x3e5be322	0.21473363
63	0x3d89edfc	0.06734845
64	0x3bb30799	0.005463552
65	0x3deb6ed7	0.114957504
66	0x3c06ac60	0.008219808
67	0xbd1e3d84	-0.038632885
68	0x3e355e2a	0.17711702
69	0x3d975bf0	0.073905826
70	0xbd491090	-0.04908806
71	0xbe08f666	-0.13375244

convblock1.2.weight f4 [8]
0	0x3e36d718	0.17855489
1	0x3e5488ed	0.20755358
2	0x3e3de9b7	0.18546186
3	0x3e72f541	0.2372637
4	0x3e500bb8	0.2031697
5	0x3e73188a	0.2373983
6	0x3e6aa71d	0.22915311
7	0x3e4292fc	0.19001383

convblock1.2.bias f4 [8]
0	0x3db37e44	0.08764318
1	0x3d4b8da2	0.04969562
2	0xbcc4c0b2	-0.024017666
3	0x3d436e0e	0.04771238
4	0xbcd37192	-0.02581099
5	0xbd3e2d29	-0.046429787
6	0x3dfdb72b	0.12388452
7	0xbd14db19	-0.03634176

convblock1.2.running_mean f4 [8]
0	0x3e349243	0.1763392
1	0x3df09525	0.11747197
2	0x3e39e01b	0.18151896
3	0x3dfbffa5	0.1230462
4	0x3dcf42a5	0.10120133
5	0x3dc6ee24	0.097133905
6	0x3dd44bcc	0.103660196
7	0x3dd8b82b	0.10582002

convblock1.2.running_var f4 [8]
0	0x3c8c93d6	0.017160337
1	0x3d24914d	0.040177632
2	0x3c6c7ddf	0.014434307
3	0x3dcad413	0.09903731
4	0x3d94196c	0.07231411
5	0x3d8678d0	0.06566012
6	0x3d933db8	0.07189506
7	0x3d501a49	0.050806317

convblock2.0.weight f4 [32, 8, 3, 3]
0	0xbc95f557	-0.018305464
1	0x3c96601b	0.018356374
2	0xbb8f48be	-0.004372685
3	0x3cb3f0f6	0.021965485
4	0x3c0ae85e	0.008478252
5	0xbb9cddd1	-0.0047871848
6	0x3c93b2fc	0.018029682
7	0xbc2b7a91	-0.010466234
8	0xbc565ebb	-0.013084109
9	0x3c83a3ac	0.016069256
10	0x3d17baef	0.03704351
11	0x3d361e29	0.044462357
12	0xbd1d360d	-0.038381625
13	0xbad1c768	-0.0016004862
14	0x3b6fd3f3	0.0036594837
15	0xbd9766ff	-0.07392692
16	0xbd033103	-0.032029163
17	0xbbdbb08f	-0.006704397
18	0x3c84c8c1	0.016209008
19	0x3bdf969c	0.006823374
20	0x3d0fd5fa	0.035116173
21	0xbcd2bd85	-0.025725136
22	0x3a867fb1	0.0010261444
23	0x3ccdd7a1	0.025127234
24	0xbcc2899e	-0.023747262
25	0x3c87846e	0.01654264
26	0x3cb8e29b	0.022568991
27	0xbd847ed5	-0.06469504
28	0xbd7e92d2	-0.062151738
29	0xbd22802d	-0.03967302
30	0xbd90201f	-0.070373766
31	0xbd3617e6	-0.044456385
32	0xbce9d3a1	-0.028543295
33	0xbd81b078	-0.06332487
34	0xbcc953c8	-0.024576083
35	0xba6230d6	-0.0008628493
36	0xbc5d72f1	-0.013516174
37	0xbc869f5c	-0.01643341
38	0x3a92ec14	0.0011209273
39	0xbcb4c55f	-0.02206677
40	0x3b1cf7bd	0.0023951374
41	0x3cb45ce5	0.022016952
42	0x3b943d95	0.0045239427
43	0x3ce68d44	0.028143533
44	0x3d6a7c31	0.057247344
45	0x3aba077e	0.0014192907
46	0x3c703abe	0.014662443
47	0x3d376c6a	0.044781126
48	0x3c921d49	0.01783623
49	0x3c3da990	0.011576071
50	0x3cba34d3	0.022730267
51	0xbb83047c	-0.0039983373
52	0x3c95d17f	0.018288372
53	0x3d4ba488	0.049717456
54	0xbc72dfd8	-0.014823876
55	0x3c201cc8	0.009772487
56	0x3bac2f6e	0.0052546775
57	0xba8c3a9c	-0.0010698619
58	0x3ce34367	0.0277421
59	0x3d61e995	0.0551544
60	0xbcb1d9fc	-0.021710388
61	0x3c290115	0.010315199
62	0x3d364a51	0.044504467
63	0xbcd5e6c9	-0.026111024
64	0xbcfe940e	-0.031076457
65	0xbca5c4b2	-0.020235393
66	0xbd710ebf	-0.058851954
67	0xbcef11a8	-0.029183224
68	0xbc54eac0	-0.012995422
69	0xbd46377c	-0.048392758
70	0xbc2640df	-0.010147302
71	0xbb956b90	-0.0045599416
72	0xbdaba9e7	-0.08382016
73	0xbce1c80d	-0.027561212
74	0x3bdd202e	0.006748221
75	0xbd26aadd	-0.04069029
76	0xbd31920a	-0.043352164
77	0xbd11487a	-0.03546951
78	0xbd8c881a	-0.06861897
79	0xbd4656e3	-0.048422705
80	0xbd0b8c2a	-0.034069218
81	0xbd59efb2	-0.053207107
82	0xbd35827a	-0.044313885
83	0xbd86de05	-0.065853156
84	0xbc382f04	-0.011241678
85	0xbd468f6b	-0.048476618
86	0xbd228fd4	-0.039687946
87	0x3cf09b44	0.029370911
88	0x3c851590	0.016245633
89	0xbc6de696	-0.014520308
90	0x3cabbeca	0.020964999
91	0x3c4d6be6	0.012537932
92	0x3c7cd175	0.015430798
93	0xbcc9d27d	-0.024636501
94	0xbcdee8cd	-0.027210617
95	0x3bdec736	0.00679865
96	0xbd49d292	-0.04927308
97	0xbc0125d6	-0.007882556
98	0x3d096022	0.033538945
99	0xbd3e52fc	-0.04646586
100	0xbc898466	-0.016786765
101	0xbca79d9a	-0.020460892
102	0xbc8a997d	-0.016918892
103	0xbcc9db05	-0.02464057
104	0xbcba5959	-0.022747682
105	0x3b54df33	0.003248167
106	0x3c409888	0.011755116
107	0x3d0004da	0.031254627
108	0xbd4da85b	-0.050209384
109	0xbd77db9a	-0.060512163
110	0xbd4bf8fa	-0.04979799
111	0xbd2a34f0	-0.04155439
112	0xbd0aa514	-0.033848837
113	0xbd0e08d5	-0.03467639
114	0xbc6c1157	-0.014408431
115	0x3c8a1748	0.016856804
116	0xbcd13a7c	-0.025540583
117	0xbd6ec637	-0.0582945
118	0xbd61d80e	-0.055137686
119	0xbcdca2e3	-0.02693314
120	0xbd3caa0a	-0.0460606
121	0xbd236a59	-0.039896343
122	0xbd90790b	-0.07054337
123	0x3d3cc6b4	0.046087936
124	0xbca1b3f3	-0.019739127
125	0xbd841753	-0.06449761
126	0xbc76a527	-0.015054024
127	0xbcda2daf	-0.026633112
128	0xbc5c5b85	-0.013449554
129	0xbcbd55ce	-0.023112204
130	0xbce91829	-0.028453903
131	0xbd51f5d5	-0.051259834
132	0x3d1f9b7d	0.038966645
133	0x3d0950cf	0.03352433
134	0xbd1effa1	-0.038818005
135	0xbcf8b24b	-0.030358454
136	0xbd98fd32	-0.07470168
137	0xbc9c2518	-0.019060656
138	0xbc892b96	-0.016744416
139	0xbcd57b4d	-0.026059771
140	0xbcf782e3	-0.030213779
141	0xbc8f6047	-0.017501963
142	0xbb8f2a16	-0.0043690307
143	0xbcf279dc	-0.029599123
144	0xbd32644b	-0.043552678
145	0xbd09f1b1	-0.03367776
146	0x3baaf95b	0.005217714
147	0xbd237c0b	-0.03991322
148	0xb9cdd4e0	-0.0003925925
149	0x3d7a5473	0.061115693
150	0xbd360ac8	-0.044443876
151	0x3cebfa95	0.02880601
152	0x3cb8c1b8	0.02255331
153	0xbd26358d	-0.040578414
154	0xbc30d197	-0.010792158
155	0x3d004fba	0.031326033
156	0x3d44c059	0.048035
157	0x3d5e1547	0.05421951
158	0x3d9517d4	0.072799355
159	0x3d32775e	0.04357087
160	0x3d11e831	0.035621826
161	0x3d54d753	0.05196316
162	0xbc04821f	-0.008087664
163	0xbcf3addf	-0.029745994
164	0xbd1e9c87	-0.038723495
165	0x3bd7e893	0.0065890043
166	0x3c04b889	0.008100637
167	0xbcaeb0b8	-0.0213245
168	0x3c543469	0.012951949
169	0xbc262cfc	-0.010142561
170	0xbc74a955	-0.01493295
171	0x3cb93544	0.022608407
172	0xbb8a30dd	-0.0042172507
173	0xbc9f9408	-0.019479766
174	0xbd0bc136	-0.034119807
175	0xbcfbb70e	-0.030726936
176	0xbd30c5ca	-0.043157376
177	0xbdcdff14	-0.10058418
178	0xbd728a40	-0.059213877
179	0xbd8f86af	-0.07008111
180	0x3cea9a33	0.028637981
181	0x3d86d18a	0.06582935
182	0x3d91535e	0.07095979
183	0x3cbab581	0.022791626
184	0x3d035b25	0.032069344
185	0x3bcd8af4	0.006272668
186	0x3c2bd221	0.01048711
187	0xbcf56b66	-0.029958438
188	0xbd0af096	-0.033920847
189	0xbc4a5bbf	-0.012350976
190	0xbb8acec9	-0.0042360765
191	0xbbb4805b	-0.005508465
192	0xbc789dfd	-0.015174386
193	0xbc752c1c	-0.01496413
194	0xbcacff85	-0.021117935
195	0x3cb0afc4	0.021568187
196	0x3cd14fe6	0.025550794
197	0x3d13090c	0.0358973
198	0xbd3c8748	-0.04602745
199	0xbbe2a2ae	-0.0069163656
200	0xbcfcbb86	-0.030851137
201	0xbd994640	-0.07484102
202	0xbd47d1e1	-0.04878414
203	0xbdab395c	-0.0836055
204	0xbd145a4e	-0.036218934
205	0xbd2ec68b	-0.042669814
206	0x3bd496eb	0.0064877174
207	0x3c32353f	0.010876953
208	0x3d52c3ce	0.051456265
209	0x3d638806	0.055549644
210	0xbcc9326c	-0.024560176
211	0x3cb02fab	0.021507105
212	0x3ca21d01	0.01978922
213	0xbd97f8a5	-0.07420472
214	0xbd06aefc	-0.03288172
215	0xbd4aca1a	-0.049509145
216	0xbbd32605	-0.0064437413
217	0xbcca3b8a	-0.024686594
218	0xbd595fba	-0.053069808
219	0x3cc3a87b	0.023884049
220	0x3bfa8839	0.0076456335
221	0xbd765963	-0.06014384
222	0xb9a039ba	-0.00030560588
223	0x3d85c21c	0.06531164
224	0xbd789575	-0.06068941
225	0x3bf7e382	0.007564963
226	0x3d86260d	0.06550226
227	0x3de5dac1	0.112233646
228	0xbc22e713	-0.009942788
229	0xbd54ebbd	-0.05198263
230	0xbc8577e0	-0.016292512
231	0x3d6004b6	0.054691993
232	0x3d01883e	0.03162407
233	0x3dcb97b2	0.09941043
234	0xbd09b18a	-0.03361658
235	0xbd072c5c	-0.03300129
236	0xbd4ab159	-0.04948554
237	0x3c8b5597	0.017008586
238	0x3c3b3af9	0.011427634
239	0xbcb7f51a	-0.02245574
240	0x3cc2439b	0.023713877
241	0x3d214ed3	0.039381813
242	0xbc208ecf	-0.009799673
243	0xbc7ae6e5	-0.015313839
244	0xbc93c84f	-0.01803985
245	0xbce8a33d	-0.02839815
246	0x3c2fb347	0.010723895
247	0x3b8f8d22	0.004380838
248	0xbd1637b3	-0.036674213
249	0xbcc9d0ac	-0.024635635
250	0xbcb0a8a2	-0.021564785
251	0xbd1b802a	-0.037964024
252	0x3abd12a6	0.0014425113
253	0x3d18a4e0	0.037266612
254	0x3dbc7357	0.09201687
255	0xbcd11dac	-0.025526844

convblock2.2.weight f4 [32]
0	0x3dc3229a	0.09528084
1	0x3e02a79e	0.12759253
2	0x3e2a4853	0.16629152
3	0x3e2820b0	0.1641872
4	0x3e5d6592	0.21620777
5	0x3e00d0a4	0.1257959
6	0x3e0e70fd	0.13910289
7	0x3e1b853f	0.15187548
8	0x3dfc1a0d	0.12309656
9	0x3e352213	0.1768878
10	0x3e17863c	0.147973
11	0x3e1ad26a	0.15119329
12	0x3e3eb83c	0.18624967
13	0x3e321114	0.17389327
14	0x3e05c0c3	0.13061814
15	0x3df7007a	0.12060638
16	0x3e05f303	0.13080983
17	0x3df354c7	0.11881404
18	0x3e1f918a	0.15582862
19	0x3e25cb1b	0.1619076
20	0x3dc247b6	0.09486334
21	0x3e2e3a7e	0.170145
22	0x3e102bef	0.1407926
23	0x3e32a4fc	0.17445749
24	0x3e020786	0.12698182
25	0x3deddbfc	0.11614224
26	0x3e051e40	0.1299982
27	0x3e39ee2c	0.18157262
28	0x3e219b47	0.1578189
29	0x3dbd31a9	0.092379875
30	0x3e4011cb	0.18756787
31	0x3e32751f	0.1742749

convblock2.2.bias f4 [32]
0	0x3d5e21f2	0.05423159
1	0x3d3e1a12	0.04641158
2	0x3cfed7e0	0.031108797
3	0x3c87e4ee	0.016588654
4	0xbcdade70	-0.026717395
5	0x3d37f6bc	0.04491304
6	0xbd31fa58	-0.043451637
7	0x3c24c21d	0.010056046
8	0xbc014a2b	-0.007891218
9	0xbd4a0c24	-0.049327984
10	0x3b6a00fd	0.0035706155
11	0xbd3bcaf9	-0.045847867
12	0xbcbac3ca	-0.022798438
13	0x3d9acdc9	0.07558782
14	0xbd786394	-0.06064184
15	0xbd252362	-0.040316947
16	0x3d34418a	0.044007815
17	0xbd917d96	-0.07104032
18	0x3d939704	0.07206538
19	0x3d3c839a	0.046023943
20	0xbc76cd25	-0.015063559
21	0x3d600bee	0.054698877
22	0xbda0f07b	-0.07858368
23	0x3c0c9198	0.008579634
24	0xbd0641f5	-0.032777745
25	0x3cf2953a	0.029612172
26	0x3c9b6d9b	0.018973162
27	0x3c9dc4dc	0.019258909
28	0xbd82c97e	-0.06386088
29	0xbd44adf4	-0.048017457
30	0x3c1810d2	0.009281354
31	0x3d07e179	0.03317401

convblock2.2.running_mean f4 [32]
0	0x3d2bd3bc	0.041949973
1	0x3cfb77cc	0.030696772
2	0x3cb8bf75	0.022552231
3	0x3cd30788	0.025760427
4	0x3ccc22bb	0.024918905
5	0x3cf11f38	0.029433832
6	0x3c81ab87	0.01582886
7	0x3d535f91	0.05160481
8	0x3cdcb66d	0.026942456
9	0x3ccfab19	0.02535014
10	0x3d142d14	0.036175802
11	0x3d09a642	0.03360582
12	0x3d419e7d	0.047270287
13	0x3d3d011c	0.046143636
14	0x3ce2152d	0.027597988
15	0x3cf75907	0.030193819
16	0x3d79b560	0.06096399
17	0x3d455934	0.048180774
18	0x3c84165b	0.016123941
19	0x3ce348c4	0.027744658
20	0x3bf3cb94	0.00744004
21	0x3d56647b	0.05234192
22	0x3d073a9c	0.03301488
23	0x3d341458	0.043964714
24	0x3c828818	0.015934035
25	0x3cd93591	0.0265148
26	0x3c84b742	0.016200665
27	0x3d658687	0.0560365
28	0x3c66fae3	0.014097902
29	0x3ce54a5e	0.027989563
30	0x3d44bcce	0.04803162
31	0x3d131431	0.035907928

convblock2.2.running_var f4 [32]
0	0x3b29e025	0.0025920954
1	0x3a890b0f	0.0010455566
2	0x3bb8c9d9	0.0056392965
3	0x3bb06ecd	0.005384302
4	0x3c02f29b	0.007992412
5	0x3b9d9e88	0.004810158
6	0x3b1cbf8d	0.0023917884
7	0x3b332771	0.0027336741
8	0x3b7d56e8	0.0038656536
9	0x3b7d45ce	0.0038646343
10	0x3be63251	0.007025041
11	0x3bbb5621	0.0057170545
12	0x3c381558	0.0112355575
13	0x3ae2df87	0.0017309048
14	0x3b796751	0.0038055966
15	0x3bc11ec6	0.005893561
16	0x3b6ea4d3	0.003641416
17	0x3c1779e5	0.0092453705
18	0x3b49c055	0.0030784805
19	0x3aed113e	0.0018086804
20	0x3a93e371	0.0011282993
21	0x3b1b4fb7	0.0023698637
22	0x3bb02ac2	0.005376191
23	0x3b3e601f	0.0029048992
24	0x3b4b88e9	0.0031056947
25	0x3ac4eab7	0.0015023564
26	0x3b3492b2	0.0027553258
27	0x3c406756	0.011743387
28	0x3b6f8012	0.0036544842
29	0x3b42b6e2	0.0029711057
30	0x3c56e1fa	0.0131154
31	0x3b61705e	0.0034399251

convblock3.0.weight f4 [8, 32, 1, 1]
0	0xbc472bb4	-0.012156416
1	0xbd303f83	-0.04302932
2	0x3cd9636d	0.026536668
3	0x3dcdeb85	0.100546874
4	0xbce69930	-0.028149217
5	0x3dc0c765	0.094130315
6	0x3c9a429b	0.018830588
7	0xbd71e7e6	-0.059059046
8	0xbc12c032	-0.008956956
9	0x3deb1b39	0.11479802
10	0x3dea8cfd	0.11452673
11	0x3cee3a89	0.029080646
12	0xbcda5620	-0.026652396
13	0x3dcbdd93	0.09954371
14	0x3c85c318	0.01632838
15	0xbd6a9436	-0.05727025
16	0x3a8b316e	0.001061959
17	0x3c6c4231	0.014420078
18	0x3e160f9b	0.1465439
19	0x3dd93e41	0.10607577
20	0xbc4a0224	-0.012329612
21	0xbd7f7bc5	-0.062373895
22	0x3cf111ce	0.029427435
23	0xbcf016a4	-0.02930767
24	0xbc4ad4ed	-0.012379867
25	0xbcfba3ef	-0.030717818
26	0xbd9cca4b	-0.07655772
27	0x3e127ad2	0.14304665
28	0x3dce07c0	0.10060072
29	0x3c6e3180	0.014538169
30	0xbd57b17a	-0.05265949
31	0x3e40fd02	0.18846515
32	0xbdad4e08	-0.08462149
33	0xbd10c79b	-0.03534661
34	0xbdd04c8c	-0.1017085
35	0xbcc54e91	-0.024085315
36	0xbd4dc216	-0.050233923
37	0xbd9988d0	-0.07496798
38	0xbb2b6d29	-0.0026157594
39	0xbdd8f2e2	-0.10593201
40	0xbcefce3b	-0.029273143
41	0x3e125f33	0.14294128
42	0xbd89fdbc	-0.06737849
43	0x3d9a0ee5	0.07522372
44	0xbcb70949	-0.022343295
45	0xbda38c97	-0.079858
46	0x3e05c693	0.13064031
47	0x3ce71b77	0.028211338
48	0xbe27fa12	-0.16403988
49	0x3e525539	0.20540322
50	0xbcd3080c	-0.025760673
51	0x3cfad004	0.030616768
52	0x3d515b4d	0.05111246
53	0xbdffb1e1	-0.124850996
54	0x3df55414	0.11978927
55	0xbcddd308	-0.027078167
56	0x3c879dd7	0.016554756
57	0xbdc8be7d	-0.09801958
58	0x3d66cc1e	0.056347005
59	0xbdb7ca1d	-0.08974097
60	0xba25b55e	-0.00063212763
61	0x3db4fc64	0.08837202
62	0xbdf313da	-0.11869021
63	0x3b9ead94	0.0048424695
64	0xbddce30f	-0.107854955
65	0x3bb76dc3	0.0055978014
66	0xbd968199	-0.073489375
67	0xbd5ec48f	-0.05438667
68	0x3e1e0758	0.15432489
69	0xbdaa2dca	-0.08309515
70	0xbcc3cdd6	-0.023901861
71	0xbd191d10	-0.03738123
72	0xbdd54fb9	-0.104155965
73	0x3d2707ef	0.04077905
74	0xbbce2b28	-0.0062917657
75	0x3deffeb4	0.11718503
76	0xbd9a9e10	-0.07549679
77	0x3cba6194	0.022751607
78	0x3c128820	0.008943588
79	0x3dd50cfb	0.104028665
80	0xbda27ecd	-0.079343416
81	0xbd4c3b59	-0.049861286
82	0xbab50492	-0.0013810566
83	0x3dc34988	0.09535509
84	0x3da32e90	0.079678655
85	0xbd7278f1	-0.05919737
86	0x3da81832	0.0820774
87	0x3d0b0a2c	0.033945248
88	0x3e07dd0d	0.13267918
89	0xbd88ee27	-0.06686049
90	0xbdf372d1	-0.11887134
91	0xbdc18d07	-0.09450727
92	0x3e40a847	0.18814193
93	0xbd3469f9	-0.044046376
94	0xbdc77fb6	-0.09741156
95	0x3bf8b91e	0.007590427
96	0xbb816a9a	-0.0039494755
97	0xbd85b44b	-0.06528529
98	0xbdb671e2	-0.0890844
99	0xbd1db132	-0.038499065
100	0xbdbda962	-0.09260823
101	0x3ca01a9f	0.019543944
102	0x3e263e18	0.16234624
103	0xbd7ff79b	-0.062491994
104	0x3db6ff4c	0.08935413
105	0x3dfdcb35	0.12392274
106	0x3e2873f4	0.16450483
107	0xbd94a28c	-0.07257566
108	0xbda1562b	-0.07877763
109	0xbe0b6513	-0.13612776
110	0xbc2bc544	-0.0104840435
111	0xbd614f67	-0.055007365
112	0x3cf0c92a	0.029392797
113	0x3d5f108c	0.05445914
114	0xbd678511	-0.056523386
115	0xbdc084a7	-0.094003014
116	0xbc44dd71	-0.012015686
117	0xbdcbf374	-0.099585444
118	0x3abeb61f	0.0014550126
119	0xbd840aa8	-0.06447345
120	0xbd031f85	-0.03201248
121	0xbd19e4ba	-0.037571646
122	0x3d335d4d	0.04379015
123	0x3e0f822e	0.14014503
124	0x3d6812d2	0.056658573
125	0x3d9cf08b	0.076630674
126	0x3d0932bb	0.033495646
127	0x3b93e5ae	0.004513464
128	0x3caa0b95	0.020757476
129	0x3dfe1aee	0.1240748
130	0xbb8312a1	-0.0040000235
131	0xbb9b8093	-0.004745552
132	0x3c9cc673	0.019137597
133	0x3d74fb76	0.059810124
134	0xbd3d887c	-0.04627274
135	0xbb971d4e	-0.0046116477
136	0xbae848a8	-0.0017721849
137	0xbd072d67	-0.033002283
138	0x3d387f2d	0.04504316
139	0x3d201dd4	0.039090946
140	0x3ced5eb1	0.028975816
141	0x3cbf073d	0.023318881
142	0x3dce0b11	0.100607045
143	0xbd035ae1	-0.03206909
144	0xbd1008f3	-0.035164785
145	0x3daa6bcb	0.08321341
146	0x3de2ecc6	0.11080317
147	0x3e218556	0.1577352
148	0xbd858526	-0.06519537
149	0x3cfde11d	0.030991131
150	0xbd17130b	-0.036883395
151	0x3e197a75	0.1498812
152	0x3d383933	0.044976424
153	0xbcb0cd41	-0.021582248
154	0x3de0386c	0.109482616
155	0x3dca5306	0.09879117
156	0xbd178b9d	-0.03699838
157	0xbce6acf7	-0.028158648
158	0xbd159b93	-0.03652532
159	0xbcb18aa7	-0.02167256
160	0xbd5ac410	-0.053409636
161	0xbd3fb28e	-0.046801142
162	0x3df3e885	0.11909584
163	0x3e3efe43	0.1865168
164	0x3e3a9ca7	0.1822382
165	0xbd81c6b8	-0.06336731
166	0xbd1134a5	-0.035450596
167	0x3dd1a92a	0.102373436
168	0xbd6e692d	-0.058205772
169	0x3d26ec6e	0.04075282
170	0xbd85bbda	-0.065299705
171	0xbd32636d	-0.04355185
172	0x3dcb579b	0.09928819
173	0x3db588d2	0.08863987
174	0x3c257384	0.010098342
175	0xbc1cbcfe	-0.009566544
176	0xbda07304	-0.078344375
177	0x3d63d33a	0.055621363
178	0xbd67f614	-0.056631163
179	0x3ad43dde	0.0016192754
180	0x3d580706	0.052741073
181	0x3c873000	0.01650238
182	0x3d1709b1	0.036874477
183	0xbd53f5fb	-0.051748257
184	0x3d975c33	0.073906325
185	0x3d4a1cdf	0.04934394
186	0x3db414fa	0.087930635
187	0x3d7a845c	0.061161384
188	0x3cd92401	0.026506426
189	0x3d303265	0.04301681
190	0xbd7e4980	-0.062081814
191	0x3d58c0aa	0.052918114
192	0x3d5ec4ef	0.05438703
193	0x3cf7eba0	0.030263722
194	0x3dc68a0a	0.096942976
195	0xbd46bd09	-0.04852012
196	0x3d795d00	0.060879707
197	0xbd641f39	-0.05569384
198	0x3c2d86dc	0.010591235
199	0x3da077fb	0.078353845
200	0x3de37688	0.111065924
201	0xbbbfd1df	-0.005853876
202	0xbd315f48	-0.043303758
203	0x3def55a9	0.1168626
204	0xbdb2297a	-0.08699317
205	0xbd03364b	-0.0320342
206	0x3bd79a55	0.006579677
207	0x3de5128d	0.11185179
208	0xbd12cf9f	-0.035842534
209	0x3b901a75	0.004397685
210	0xbd71fe06	-0.059080146
211	0xbd14db41	-0.03634191
212	0xbcb631b5	-0.022240499
213	0xbe0107d8	-0.12600648
214	0x3e1957fc	0.1497497
215	0x3e1e3a23	0.15451865
216	0xbce481fd	-0.027894014
217	0x3df1834e	0.117926225
218	0xbde3e8cc	-0.11128387
219	0x3bbbc845	0.005730661
220	0xbd049de8	-0.032377154
221	0x3cf8938b	0.030343791
222	0x3ca0e040	0.01963818
223	0xbdb22f0d	-0.087003805
224	0xbbdec9d9	-0.0067989645
225	0xbdcdf2c1	-0.10056067
226	0xbd4e6b45	-0.05039527
227	0xbc65d081	-0.014026762
228	0x3d97f946	0.07420592
229	0xbc7f2831	-0.015573547
230	0x3dbc2745	0.091871776
231	0x3d5f7f0c	0.05456452
232	0x3c6fa32b	0.014626305
233	0xbce2287d	-0.027607197
234	0x3c7747a8	0.015092768
235	0x3cf45107	0.029823793
236	0x3e47d3f3	0.19514446
237	0xbd8f1b24	-0.069875985
238	0x3e04679a	0.12930146
239	0x3d21b07c	0.03947495
240	0x3d141534	0.036153033
241	0x3d66e186	0.05636742
242	0xbd5f1094	-0.05445917
243	0xbd1f9156	-0.038956963
244	0xbd367b44	-0.04455115
245	0x3d8cb5b8	0.068705976
246	0x3d602c23	0.054729592
247	0xbd54166c	-0.051779196
248	0xbdb669e6	-0.08906917
249	0x3ca8820b	0.020569822
250	0xbd6056ee	-0.054770403
251	0xbd7ad09c	-0.0612341
252	0xbdc6a319	-0.09699077
253	0x3d7effd9	0.062255714
254	0x3e4b1450	0.19831967
255	0xbdb844a4	-0.08997467

convblock4.0.weight f4 [16, 8, 3, 3]
0	0x3ccb84f5	0.024843672
1	0x3d47ccb6	0.048779212
2	0x3dc53a1c	0.09630224
3	0xbd15943d	-0.036518324
4	0x3c1e3eb2	0.009658502
5	0x3d23dfba	0.040008284
6	0xbd305604	-0.04305078
7	0xbd514368	-0.051089674
8	0xbd6837e3	-0.056693923
9	0x3caacb7f	0.020848988
10	0x3cd15f8e	0.02555826
11	0xbc658da7	-0.014010823
12	0x3d5eea70	0.054422796
13	0x3c86fe7a	0.016478766
14	0x3c541b47	0.012945957
15	0x3dde99a0	0.108691454
16	0x3d0a4ac3	0.033762705
17	0x3ccf0faf	0.025276033
18	0xbca1dce3	-0.019758647
19	0x3d196528	0.037449986
20	0x3e053e96	0.13012156
21	0x3bedce2b	0.007257243
22	0x3ccc2472	0.024919722
23	0xbc30c773	-0.01078974
24	0x3c3162b3	0.010826754
25	0xbd4995b7	-0.049215045
26	0xbdfcd50c	-0.12345323
27	0x3cda605d	0.026657278
28	0xbd31c8b6	-0.043404303
29	0xbce581dc	-0.028016023
30	0x3c5e55a5	0.013570224
31	0xbd131fbc	-0.035918936
32	0x3cde866f	0.027163712
33	0x3d84f224	0.06491497
34	0x3d4ca4fa	0.04996202
35	0x3dad1a76	0.08452313
36	0x3d2da17a	0.042390324
37	0x3c4c3a75	0.012465109
38	0x3da5457a	0.08069892
39	0xbb8de0fd	-0.004329799
40	0xbd0be88a	-0.034157313
41	0x3cb6f74b	0.022334715
42	0xbc8107c4	-0.015750773
43	0xbd39ccba	-0.045361258
44	0xbcbef459	-0.023309873
45	0x3ce3a796	0.027789872
46	0x3cd04005	0.025421152
47	0xbd598b93	-0.053111624
48	0xbc8313be	-0.016000625
49	0xbbca045b	-0.00616507
50	0xbd6fd1a0	-0.058549523
51	0xbde65245	-0.112461604
52	0xbd9d9218	-0.07693881
53	0xbdfbbfec	-0.122924656
54	0xbb8697fd	-0.004107474
55	0xbd9569ae	-0.072955474
56	0xbd92cf9c	-0.071685046
57	0xbc88856f	-0.016665189
58	0xbcc3fad3	-0.023923313
59	0xbd7ccc16	-0.06171807
60	0x3d66b098	0.056320757
61	0x3cb3b68e	0.021937635
62	0xbd6d76b0	-0.057974517
63	0x3da86642	0.08222629
64	0xbc89e654	-0.016833462
65	0xbe173588	-0.14766514
66	0x3d74b3ec	0.0597419
67	0xbcae7c99	-0.021299647
68	0xbe061683	-0.13094525
69	0x3dc33a45	0.095325984
70	0x3db22675	0.08698741
71	0x3c5cb242	0.013470234
72	0xbc00e003	-0.007865909
73	0xbdaf0469	-0.08545763
74	0xbc98726e	-0.018609252
75	0x3d196e4d	0.037458707
76	0x3c12a364	0.008950088
77	0xbc885257	-0.016640825
78	0x3debea08	0.11519247
79	0x3d111376	0.03541895
80	0xbda8540a	-0.08219154
81	0xbcaaf55c	-0.02086895
82	0xbd1cf4f6	-0.03831955
83	0xbbb8d8f1	-0.005641096
84	0x3b9c2ea9	0.0047663045
85	0x38a16057	7.695023e-05
86	0x3d6d61ca	0.057954587
87	0xbc9e7ea9	-0.019347506
88	0xbbfac85f	-0.0076532806
89	0x3d925708	0.07145506
90	0xbd8222ec	-0.06354317
91	0xbc68b894	-0.014204163
92	0x3d6ddc62	0.0580715
93	0x3bf487aa	0.0074624615
94	0x3d050a7f	0.032480713
95	0x3cd9922e	0.026558962
96	0x3c7c333a	0.015393073
97	0x3db756a4	0.08952072
98	0xbd80f0a2	-0.06295897
99	0x3ce7fd5c	0.028319053
100	0xbd3c875e	-0.046027534
101	0xbd59082d	-0.052986313
102	0x3d9a3010	0.075286984
103	0x3ceb0006	0.028686535
104	0x3d7a71f1	0.06114382
105	0x3c8b7708	0.017024532
106	0xbccaa629	-0.024737434
107	0x3e1466d2	0.14492348
108	0xbd7b036b	-0.061282557
109	0xbdcaf076	-0.099091455
110	0xbd4688bb	-0.04847024
111	0xbd089ef7	-0.033354726
112	0xbd39cbe4	-0.04536046
113	0xbd5ad509	-0.053425822
114	0xbd467dc5	-0.048459787
115	0xbcf86cdf	-0.030325351
116	0xbdb2ef84	-0.0873709
117	0xbb7eeeb4	-0.0038899602
118	0x3d15fff5	0.036621053
119	0x3e3d8f13	0.1851161
120	0xbd894bea	-0.067039326
121	0xbd04740b	-0.03233723
122	0x3ce1091b	0.027470162
123	0xbd9817c6	-0.074264094
124	0xbdb09023	-0.08621242
125	0xbd1b156b	-0.037862223
126	0xbc550879	-0.013002508
127	0x3dab0952	0.08351387
128	0x3e199204	0.14997107
129	0xbde47eda	-0.111570075
130	0xbd4272c1	-0.04747272
131	0x3ccf7f69	0.025329309
132	0xbdd1053d	-0.10206077
133	0xbc1d6454	-0.00960644
134	0x3e0709f4	0.1318739
135	0x3db32558	0.08747357
136	0x3db807b2	0.08985843
137	0x3d8cb9a9	0.06871349
138	0xbd154975	-0.036447007
139	0x3b945a3a	0.0045273574
140	0xbc267a4e	-0.010160996
141	0xbe015ffa	-0.12634268
142	0xbd5640de	-0.052307956
143	0x3db5afe2	0.088714376
144	0xbd591d91	-0.053006712
145	0xbd774536	-0.06036874
146	0x3da04f2c	0.07827601
147	0xbcab9c3b	-0.02094852
148	0xbcc3e28e	-0.02391174
149	0x3db0f583	0.08640578
150	0x3d7679b0	0.060174644
151	0x3cff8f16	0.031196158
152	0x3dae4148	0.08508545
153	0x3d792c15	0.060833056
154	0x3d2948e5	0.041329283
155	0x3d622dfd	0.05521964
156	0x3cefce16	0.029273074
157	0x3cdd6484	0.027025469
158	0x3d139441	0.036030058
159	0xbca08b1b	-0.01959758
160	0xbca3c154	-0.019989647
161	0xbcca9039	-0.024726974
162	0x3cb5ed98	0.02220802
163	0xbc43e04c	-0.011955332
164	0xbcd9f600	-0.02660656
165	0xbd97ecab	-0.07418188
166	0xbd615115	-0.055008966
167	0xbcadc020	-0.021209776
168	0xbd68bd72	-0.056821294
169	0xbca85de8	-0.02055259
170	0x3cc48b07	0.023992075
171	0x3c27f9e6	0.0102524515
172	0xbd16f6a4	-0.03685631
173	0xbd223501	-0.03960133
174	0x3d724cd9	0.05915532
175	0x3c5f900c	0.013645183
176	0x3d8c8062	0.068604246
177	0x3d48cd4a	0.049023904
178	0x3c58db5c	0.013235893
179	0x3d191f4c	0.037383363
180	0xbb4b6838	-0.003103746
181	0xbc473b78	-0.012160175
182	0x3c2b1276	0.010441413
183	0x3bb5b62e	0.005545399
184	0xbcc8f783	-0.024532085
185	0xbd42d4a4	-0.04756607
186	0xbd4b4cf8	-0.04963395
187	0xbdb3661f	-0.087597124
188	0xbde1b0e6	-0.11020069
189	0x3d8ac811	0.06776441
190	0x3d4d9d6e	0.050198965
191	0x3e8b2c16	0.27182072
192	0xbd0fccb6	-0.035107337
193	0xbcd6687e	-0.026172873
194	0x3d856fcf	0.065154664
195	0xbd1fb743	-0.03899313
196	0xbd577011	-0.05259711
197	0xbd03adb8	-0.032148093
198	0xbd07fe2a	-0.033201374
199	0xbda1d33b	-0.07901617
200	0xbda718c0	-0.081590176
201	0xbda139aa	-0.07872327
202	0xbdad166c	-0.08451542
203	0xbdd24d49	-0.10268647
204	0xbd8baed4	-0.06820455
205	0x3896ca96	7.190292e-05
206	0xbd1d3325	-0.038378853
207	0x3d5cd718	0.053916067
208	0xbb8c3358	-0.0042785816
209	0x3d2d5db0	0.042325675
210	0x3d7d2ab8	0.061808318
211	0xbc3d82d5	-0.011566837
212	0xbd936905	-0.07197765
213	0xbcb84908	-0.022495762
214	0xbd2d1ee1	-0.042265777
215	0xbdbfc8b6	-0.093644544
216	0x3cbd9850	0.023143917
217	0xbd3bd577	-0.045857873
218	0xbdc44411	-0.09583295
219	0xbd1123b8	-0.035434455
220	0xbd989e57	-0.07452076
221	0xbd26236b	-0.04056112
222	0x3c1d9596	0.009618184
223	0x3d3404fd	0.04395007
224	0x3d52e86e	0.051491193
225	0xbdab9da3	-0.08379676
226	0x3c57ae5f	0.013164132
227	0x3cb78778	0.022403464
228	0xbd1af511	-0.03783137
229	0x3c13a92c	0.009012502
230	0x3d754330	0.059878528
231	0x3df06f61	0.11739994
232	0x3e0b347b	0.13594238
233	0x3e289b15	0.16465409
234	0x3d3a5356	0.04548963
235	0x3cb67094	0.022270478
236	0xbca1bf2e	-0.019744482
237	0xbce61dac	-0.02809032
238	0xbd53661a	-0.051611044
239	0x3cbf065d	0.023318464
240	0xbc491b21	-0.012274534
241	0x3dd96044	0.10614064
242	0x3e7c6f28	0.24651778
243	0xbcea3b02	-0.02859259
244	0x3d4c57ce	0.049888425
245	0x3d2e4ac5	0.042551775
246	0x3ba56d8a	0.0050484585
247	0x3cffa6d9	0.031207489
248	0x3d532e7f	0.051558014
249	0x3d6afdd6	0.057370983
250	0x3bbf498c	0.005837625
251	0xbcfa4df6	-0.030554753
252	0xbbdc6ea9	-0.006727059
253	0xbd70813d	-0.058717
254	0xbde76f33	-0.113005064
255	0xbaa1728a	-0.001231746

convblock4.2.weight f4 [16]
0	0x3e69350b	0.2277414
1	0x3e622409	0.22084059
2	0x3e417851	0.18893553
3	0x3e41f2ba	0.18940249
4	0x3e9163db	0.28396496
5	0x3e8a4039	0.27002123
6	0x3e5bffad	0.21484251
7	0x3e52f5a2	0.20601514
8	0x3e47f277	0.19526087
9	0x3e149622	0.14510396
10	0x3e7dcf49	0.24786104
11	0x3e9fa6d9	0.31181982
12	0x3e399a3b	0.1812524
13	0x3e4a5a21	0.19760944
14	0x3e64d2a9	0.22345985
15	0x3e645caa	0.22300974

convblock4.2.bias f4 [16]
0	0x3d606dcc	0.05479221
1	0xbc962088	-0.018326059
2	0xbce1dfc0	-0.027572513
3	0xbc87cd75	-0.016577462
4	0x3e3cc35a	0.18433896
5	0x3dc276fb	0.0949535
6	0x3cf55732	0.029948805
7	0x3d99c6f6	0.07508652
8	0xbbeca6e2	-0.0072220424
9	0xbbb47788	-0.0055074133
10	0x3d027a38	0.031854838
11	0x3e770381	0.2412243
12	0xbd860a2e	-0.0654491
13	0x3cadcf20	0.021216929
14	0xbcdb2ea2	-0.026755635
15	0x3d832327	0.06403189

convblock4.2.running_mean f4 [16]
0	0x3cc957e8	0.02457805
1	0x3ca61a85	0.020276317
2	0x3d0affae	0.03393524
3	0x3c73267f	0.014840721
4	0x3d2370fc	0.039902672
5	0x3d1987bb	0.03748296
6	0x3c8602d8	0.016358778
7	0x3d0c7b3c	0.034297213
8	0x3cc6d701	0.024272444
9	0x3cc0be8f	0.023528365
10	0x3c9ffb57	0.019529028
11	0x3d023862	0.031792052
12	0x3cd6fb51	0.026242884
13	0x3d627c3c	0.05529426
14	0x3d15615e	0.03646981
15	0x3ce7f6fa	0.02831601

convblock4.2.running_var f4 [16]
0	0x3b16941e	0.0022976468
1	0x3aed0ba3	0.0018085133
2	0x3b5f2015	0.0034046222
3	0x3af596e6	0.0018736988
4	0x3b49bdc9	0.0030783287
5	0x3b4b6cf1	0.0031040276
6	0x3a6ccf69	0.0009033592
7	0x3b23881a	0.002495295
8	0x3b302c33	0.0026881814
9	0x3b0883fb	0.002083062
10	0x3b08739f	0.0020820869
11	0x3ae72d58	0.0017637415
12	0x3b5229fc	0.0032068482
13	0x3b62ea04	0.0034624347
14	0x3b5e228f	0.003389511
15	0x3b2d8ba3	0.0026480935

convblock5.0.weight f4 [16, 16, 3, 3]
0	0x3c344c3a	0.011004502
1	0x3c1182bf	0.00888127
2	0x3c87a737	0.016559226
3	0xbd91d990	-0.07121575
4	0xbba5d2ee	-0.005060545
5	0xbd176a67	-0.036966708
6	0xbd8a02cc	-0.06738815
7	0x3bae0bf3	0.005311483
8	0xbb038403	-0.0020067699
9	0x3d36c4b4	0.044621184
10	0x3c62de8c	0.013847005
11	0xbd9d4dfd	-0.07680891
12	0xbb8c4299	-0.0042804
13	0xbcab5f92	-0.020919595
14	0xbd882764	-0.06648138
15	0xbd5c31de	-0.053758495
16	0x3ab324d1	0.0013667588
17	0x3bbb5de4	0.0057179797
18	0xbd0b32c5	-0.033983964
19	0xbd8e4ec7	-0.06948619
20	0xbd80bca7	-0.062859826
21	0xbd2c3c6e	-0.042049818
22	0xbd168d1a	-0.03675566
23	0x3cf0a2b1	0.029374452
24	0xbcd28d72	-0.025702212
25	0x3a35f279	0.00069407333
26	0x3e06a5f5	0.13149245
27	0x3d39df27	0.04537883
28	0x3d873c19	0.066032596
29	0x3bc82311	0.006107696
30	0xbc5a7c17	-0.013335249
31	0xbd55ffd9	-0.05224595
32	0xbd74e261	-0.059786204
33	0xbe349db0	-0.17638278
34	0xbdffb993	-0.12486567
35	0xbe0811ff	-0.13288115
36	0xbd2dfff4	-0.042480424
37	0xbc889b2d	-0.016675556
38	0xbcfa0c0b	-0.03052332
39	0xbc12579a	-0.008932019
40	0x3d1c77db	0.03820024
41	0xbd89c837	-0.06727641
42	0x3ce6b9f5	0.028164843
43	0xbd8a98b7	-0.06767409
44	0xbe87f2f6	-0.26552552
45	0xbdd9464a	-0.1060911
46	0xbe0c4c9a	-0.13701096
47	0xbe0fc941	-0.14041616
48	0xbd8ce7aa	-0.06880124
49	0xbc31e3d9	-0.010857546
50	0x3c9256af	0.0178636
51	0xbce6ca70	-0.028172702
52	0xbcf70b41	-0.030156733
53	0x3ca59abc	0.020215385
54	0xbd905472	-0.07047357
55	0xbd32cb53	-0.043650936
56	0x3ba09e59	0.004901689
57	0xbc26551d	-0.0101521285
58	0xbb731925	-0.0037093845
59	0x3beec533	0.0072866916
60	0xbd1a4b4a	-0.037669457
61	0xbcccfef1	-0.02502391
62	0xbd076fc7	-0.033065584
63	0xbcb54be7	-0.02213092
64	0x3bb3233b	0.0054668463
65	0xbc89305a	-0.016746689
66	0xbcf72d68	-0.030173019
67	0xbc0e57ac	-0.008687895
68	0xbca3dedd	-0.02000373
69	0x3c70cf7a	0.014697904
70	0x3bcf8acb	0.006333684
71	0xbcd2ee95	-0.02574853
72	0xbcc57388	-0.024102941
73	0xbc959850	-0.018261105
74	0x3cc950d7	0.02457468
75	0x3d1896e6	0.037253283
76	0x3c3c31f9	0.011486524
77	0x3bee3fc0	0.007270783
78	0x3d8a8b1f	0.067648165
79	0x3d852e07	0.0650292
80	0x3cfa625b	0.030564478
81	0x3b822a3c	0.00397232
82	0x3c520d70	0.012820587
83	0xbcdccbbf	-0.026952622
84	0x3d49025b	0.049074512
85	0xbc7cc9f4	-0.015429009
86	0xbd71d000	-0.059036255
87	0x3d0e12e1	0.034685973
88	0xbc4f4eb0	-0.012653038
89	0xbd7f7e73	-0.06237645
90	0xbc710f1f	-0.014713078
91	0xbd2f203f	-0.04275536
92	0xbd1de0a1	-0.0385443
93	0xbd905f9a	-0.070494846
94	0xbd37bd90	-0.044858515
95	0xbd008cbd	-0.03138422
96	0xbdfd0d07	-0.123560004
97	0xbdbdef8b	-0.09274205
98	0xbd790555	-0.0607961
99	0x3d6e8685	0.058233757
100	0x3a9095ac	0.0011030934
101	0xbd41b9b2	-0.047296233
102	0x3ce79042	0.02826703
103	0xbc370ae7	-0.011172033
104	0xbc776577	-0.015099875
105	0xbdb1fb86	-0.086905524
106	0xbdd32e29	-0.10311539
107	0xbd1b2d13	-0.037884783
108	0x3cf4cfc0	0.02988422
109	0x3d7351e5	0.059404273
110	0x3d92d82a	0.07170136
111	0x3cf16bfe	0.02947044
112	0xbbf0d09a	-0.007349086
113	0xbd9ea043	-0.07745411
114	0x3d9ba380	0.075995445
115	0xbab75320	-0.0013986565
116	0xbdd7f0d8	-0.10543984
117	0x3c1397fa	0.009008402
118	0x397f42af	0.00024343537
119	0xbc3b677d	-0.011438248
120	0xbc3306fe	-0.01092696
121	0xbcc699ae	-0.024243202
122	0x3be3f96a	0.0069572227
123	0xbdc2fb7d	-0.09520624
124	0xbd478adc	-0.04871641
125	0x3d2c8f00	0.042128563
126	0x3ce30cbf	0.027716039
127	0x3c22905e	0.009922115
128	0x3da5f2a9	0.081029244
129	0x3d4d0404	0.050052658
130	0x3c53113a	0.012882525
131	0xbd36e23a	-0.04464934
132	0x3d7a15b9	0.061055873
133	0x3cdfda17	0.027325673
134	0xbdb23a1e	-0.08702491
135	0x3d39dd80	0.045377254
136	0x39f7d041	0.00047266672
137	0x3d420fb9	0.047378276
138	0xbcd1cbcb	-0.025609871
139	0xbd127206	-0.035753272
140	0xbcdd99a2	-0.027050797
141	0xbe037ec4	-0.12841326
142	0xbdc9c3c3	-0.09851792
143	0xbe159d39	-0.14610757
144	0xba511b06	-0.0007976744
145	0x3c02ad5b	0.0079759015
146	0x3cf77fa7	0.030212237
147	0x3d004343	0.031314146
148	0x3c832657	0.016009493
149	0xbd7988d0	-0.06092149
150	0x3c55e6a3	0.013055476
151	0x3c805ff5	0.015670756
152	0xbcfaa7cf	-0.030597595
153	0xbc92e996	-0.017933648
154	0x3cfe9cc9	0.03108062
155	0x3ac0f2aa	0.0014720757
156	0xbd260452	-0.040531464
157	0xbd6f118f	-0.058366355
158	0xbdf3376d	-0.11875806
159	0x3c21c9e8	0.009874798
160	0x3c55c32e	0.013047023
161	0x39a068c2	0.0003059563
162	0xbd7c5e13	-0.061613154
163	0x3a27ef0a	0.0006406164
164	0xbd394b3d	-0.04523777
165	0xbd800f66	-0.06252937
166	0xbd6fd8a6	-0.05855622
167	0xbd98c3c7	-0.074592166
168	0xbcf90d5a	-0.030401874
169	0x3c7c8e89	0.015414842
170	0x3d80514c	0.06265506
171	0xbdb17f73	-0.08666887
172	0xbd1fe03d	-0.03903221
173	0xbc97835d	-0.018495256
174	0xbdaaccc3	-0.083398364
175	0xbc1d361c	-0.00959542
176	0x3ca6ed3b	0.020376792
177	0x3db57e49	0.088619776
178	0x3c155d30	0.009116456
179	0x3dabaa9c	0.083821505
180	0x3ce7d91b	0.028301766
181	0xbd840ef2	-0.06448163
182	0xbd8f7651	-0.07004989
183	0xbd51f97a	-0.05126331
184	0xbae0b727	-0.0017144427
185	0x3cbf04ab	0.023317656
186	0xbda35d21	-0.07976747
187	0xbc4cbf31	-0.012496755
188	0xbd02767f	-0.031851288
189	0xbd426de1	-0.04746807
190	0xbdc959bc	-0.098315686
191	0xbe1fd2f9	-0.15607823
192	0x3d1e77c2	0.03868843
193	0xbc545cfa	-0.01296162
194	0xbdace22f	-0.084415786
195	0x3d509748	0.050925523
196	0xbbef116a	-0.007295777
197	0xbd0adcf5	-0.033902127
198	0xbdb47961	-0.08812214
199	0xbe03f504	-0.12886435
200	0xbdf6c532	-0.12049331
201	0x3cf32e3f	0.029685138
202	0xbd0170f4	-0.03160186
203	0xbd0a8af6	-0.03382393
204	0x3dca701a	0.09884663
205	0x3cd63a8f	0.02615097
206	0xbbc90c68	-0.006135512
207	0xbccfe4de	-0.025377687
208	0xbcdd6b69	-0.027028756
209	0xbcc31561	-0.023813905
210	0xbcc895ec	-0.02448555
211	0xbc7ee719	-0.015558028
212	0xbd23c792	-0.039985247
213	0xbd92c5bf	-0.07166623
214	0xbda71ab6	-0.081593916
215	0xbe35a49b	-0.17738573
216	0x3ce424f3	0.02784965
217	0xbd05dce1	-0.03268135
218	0xbdc8333f	-0.097753994
219	0x3a3a65b0	0.00071104895
220	0xbd0e3040	-0.034713984
221	0x3d2e395a	0.042535163
222	0x3c153aeb	0.009108285
223	0x3d22ae07	0.039716747
224	0x3e15fca0	0.1464715
225	0xbc458d7d	-0.012057659
226	0xbac08a13	-0.0014689587
227	0xbb2d0a40	-0.0026403815
228	0xbcbaace2	-0.022787515
229	0xbce82f74	-0.02834294
230	0x3c99e40b	0.018785497
231	0xbcac230e	-0.02101281
232	0xbc2c5fc4	-0.010520879
233	0x3d8131f5	0.06308357
234	0xbdad090d	-0.08448992
235	0xbda480b1	-0.080323584
236	0xbe128945	-0.14310177
237	0x3cfd92d3	0.0309538
238	0xbc5b4aec	-0.013384562
239	0xbd68f8f0	-0.05687803
240	0x3e08fee8	0.13378489
241	0x3d477b79	0.048701737
242	0x3d6f98ec	0.058495447
243	0x3cdfa353	0.027299559
244	0xbca8bae1	-0.020596923
245	0xbc7ecd60	-0.015551895
246	0xbd88965a	-0.06669302
247	0xbd8b914f	-0.06814825
248	0xbd2c7cd6	-0.04211124
249	0xbdbe0d6f	-0.09279906
250	0xbd7b8924	-0.061410084
251	0xbd745219	-0.059648607
252	0x3d267991	0.04064328
253	0x3d54237c	0.051791653
254	0x3e014489	0.126238
255	0x3d5ae8c8	0.053444654

convblock5.2.weight f4 [16]
0	0x3e793f27	0.24340497
1	0x3e645a05	0.22299965
2	0x3e5aeceb	0.2137944
3	0x3e41d022	0.18927053
4	0x3e4b075d	0.19827028
5	0x3e3eb185	0.18622406
6	0x3e369ec2	0.17833999
7	0x3e2e341b	0.17012064
8	0x3e845b3d	0.2585086
9	0x3e5b9baf	0.21446107
10	0x3e474610	0.1946032
11	0x3e5ec4fb	0.2175483
12	0x3e61ea93	0.22062139
13	0x3e617770	0.22018218
14	0x3e2e746b	0.17036597
15	0x3e735d67	0.23766099

convblock5.2.bias f4 [16]
0	0xbd4ea23b	-0.050447684
1	0xbca105e6	-0.019656133
2	0x3d9f8397	0.07788771
3	0x3d1e58ba	0.038658835
4	0xbbc1dc24	-0.0059161354
5	0xbbd80bd2	-0.006593206
6	0xbd88f8dd	-0.06688092
7	0x3bf4853d	0.0074621723
8	0xbd4985ee	-0.04919999
9	0xbdc53c04	-0.09630588
10	0xbd3f9c5f	-0.046779986
11	0x3a35fb0d	0.00069420115
12	0xbd060022	-0.03271497
13	0xbd6a98f4	-0.057274774
14	0xbdaf0240	-0.08545351
15	0xbd20c3d7	-0.039249267

convblock5.2.running_mean f4 [16]
0	0x3c9c6e9a	0.019095708
1	0x3c8026c7	0.01564349
2	0x3cd226ea	0.025653321
3	0x3d56b27f	0.05241632
4	0x3cdeb34e	0.027185109
5	0x3d117d4c	0.035519883
6	0x3cbd6c56	0.023122948
7	0x3c93c59f	0.018038569
8	0x3d17e4e9	0.03708354
9	0x3c95bef1	0.018279525
10	0x3d3b81a7	0.045777943
11	0x3cb5e270	0.0222027
12	0x3cb9e51c	0.022692256
13	0x3d3effc9	0.046630654
14	0x3cc5db2a	0.024152357
15	0x3c8d83a7	0.01727469

convblock5.2.running_var f4 [16]
0	0x3b858d6f	0.004075698
1	0x3b61f4d3	0.0034478202
2	0x3bb13b8a	0.005408709
3	0x3c3a6638	0.01137691
4	0x3bb383f9	0.005478379
5	0x3bf50216	0.0074770553
6	0x3b8dabfe	0.0043234816
7	0x3b3c6421	0.0028746205
8	0x3c1b8a67	0.009493447
9	0x3b5980c0	0.0033188313
10	0x3be5df5a	0.007015151
11	0x3b8c0184	0.0042726416
12	0x3b93cf01	0.004510761
13	0x3bf1ff6d	0.0073851855
14	0x3b80672a	0.003918548
15	0x3b7e096e	0.0038762945

convblock7.0.weight f4 [16, 16, 3, 3]
0	0xbd34baa3	-0.044123303
1	0xbd8343ff	-0.064094536
2	0xbd491e1a	-0.049100973
3	0xbd413d89	-0.047177825
4	0xbd6c1643	-0.057638418
5	0xbd2def5a	-0.04246459
6	0xbda001b6	-0.07812826
7	0xbd944c5c	-0.07241127
8	0xbd8bb4cc	-0.06821594
9	0xbd2d1634	-0.042257503
10	0xbd6a7537	-0.05724069
11	0xbd8c22f3	-0.068426035
12	0xbd287472	-0.041126676
13	0xbd7590a7	-0.059952404
14	0xbd95ff59	-0.07324094
15	0xbd2c4ea4	-0.042067185
16	0xbd91a319	-0.071111865
17	0xbde5dd27	-0.11223822
18	0xbbf64884	-0.0075159688
19	0x3ab9e874	0.0014183656
20	0x3bd6b488	0.0065522827
21	0x3c926742	0.017871503
22	0x3caab2e0	0.020837247
23	0x3d07130b	0.032977145
24	0xbb119730	-0.002221536
25	0x3c179b58	0.009253345
26	0x3c0b86e4	0.008516047
27	0x3cf6bfff	0.030120848
28	0x3c9815a8	0.018565014
29	0x3ccee71f	0.025256692
30	0x3b33dc0d	0.0027444393
31	0xbc881474	-0.016611315
32	0x3c1d6e6a	0.009608844
33	0x3c8f2049	0.01747145
34	0x3c55cb42	0.013048949
35	0x3d5542e3	0.05206574
36	0x3a81e2b8	0.0009909486
37	0x3bd32733	0.006443882
38	0x3c8ade68	0.016951755
39	0xbbd06dce	-0.006360746
40	0xbc5d8ebc	-0.0135228
41	0xbc189f38	-0.009315304
42	0xbb546f00	-0.0032414794
43	0xbc454632	-0.012040662
44	0xbb3c181e	-0.0028700898
45	0x3c59db39	0.013296896
46	0x3c113bdd	0.00886437
47	0xbc96a880	-0.018390894
48	0xbabee1a9	-0.0014563102
49	0x3c1bd6ec	0.009511691
50	0xbbde3134	-0.006780768
51	0x3a94d8b6	0.0011356089
52	0x3c196fc7	0.009365029
53	0xbd3071c4	-0.043077245
54	0xba88f983	-0.0010450337
55	0xbc801440	-0.015634656
56	0x3c1e831d	0.0096748145
57	0xbcb66e59	-0.022269415
58	0xbd14edc3	-0.03635956
59	0x3b664381	0.003513545
60	0xbd1679d2	-0.03673727
61	0xbcfafd87	-0.03063847
62	0x3d016dff	0.03159904
63	0x3bc23aaf	0.005927406
64	0xb97e0661	-0.00024225704
65	0x3cde90e1	0.027168693
66	0x3c9b5c54	0.018964924
67	0x3c04e42e	0.008111043
68	0x3d0595e9	0.03261367
69	0x3d3f2a77	0.046671357
70	0x3cdc2ca4	0.026876755
71	0x3cee16e2	0.029063646
72	0x3c180b7b	0.009280081
73	0xbb841340	-0.004030615
74	0xbd1e12a4	-0.038591996
75	0x3b4d985a	0.0031371326
76	0x3b1d7da8	0.0024031196
77	0xbc929449	-0.017892973
78	0x3c37a4a1	0.011208684
79	0x3bdda8f6	0.0067645265
80	0xbd2d1dde	-0.04226481
81	0x3d3ff937	0.04686853
82	0x3d09c000	0.03363037
83	0x3dd06109	0.10174758
84	0x3c4732be	0.012158094
85	0xbc3fb855	-0.011701663
86	0x3d8a1652	0.067425385
87	0x3d5aa649	0.053381238
88	0x3d313c2d	0.04327028
89	0x3de555c3	0.111979984
90	0x3bfe8b55	0.0077680745
91	0xbc76e1fe	-0.015068529
92	0xbc98c6e3	-0.018649524
93	0x3cce64f4	0.025194623
94	0x3c810b83	0.01575256
95	0x3bc3b6b3	0.005972707
96	0x3aa46313	0.0012541733
97	0xbc8e2d7e	-0.017355677
98	0xbd1b84e9	-0.03796855
99	0x3bcee723	0.0063141747
100	0x3c07d988	0.00829161
101	0x3d7fd0d6	0.06245502
102	0x3b93670b	0.0044983677
103	0x3b67b321	0.0035354572
104	0x3d50a056	0.05093416
105	0xbb827f87	-0.0039824876
106	0x3c3a5422	0.011372598
107	0x3d7e3999	0.06206665
108	0xbd176c9a	-0.036968805
109	0xbcd19223	-0.025582379
110	0xbadc98fe	-0.0016830263
111	0xbd3149c1	-0.043283228
112	0xbcc5693c	-0.024098031
113	0x3bd9a736	0.0066422476
114	0xbda756da	-0.081708625
115	0xbd77a6e1	-0.060461883
116	0xbd0fc761	-0.035102252
117	0x3bdd9948	0.0067626573
118	0xba075a66	-0.0005163312
119	0xbb323f2f	-0.0027198305
120	0x3bc35f99	0.005962324
121	0xbbdefff5	-0.006805415
122	0xbb1fef2f	-0.002440404
123	0x3d4f6b37	0.050639357
124	0x3d6c5e8e	0.057707362
125	0x3da64383	0.081183456
126	0x3ba1ba19	0.0049355146
127	0xbc311de2	-0.010810347
128	0xbd02d1a6	-0.031938218
129	0xbba3d448	-0.004999671
130	0xbce37d48	-0.0277697
131	0xbd21edf5	-0.039533574
132	0xbd012053	-0.031524967
133	0xbd31ab38	-0.043376178
134	0xbd87a2f8	-0.06622881
135	0xbd3f2222	-0.04666341
136	0xbd59d8a3	-0.053185116
137	0xbdaa0ea0	-0.08303571
138	0xbc91ff8f	-0.017822055
139	0xbc809362	-0.015695278
140	0xbd55184d	-0.05202513
141	0xbac8c05f	-0.001531612
142	0xbc3707b5	-0.011171271
143	0xbd52577b	-0.05135296
144	0xbb77f4e2	-0.003783517
145	0xbc46d608	-0.01213599
146	0x3a2a7d0c	0.0006503619
147	0xbbf2be1a	-0.007407916
148	0xbbdc693d	-0.0067264126
149	0xbc09b389	-0.008404621
150	0x3c3086b6	0.010774305
151	0xbabf64c9	-0.001460218
152	0x3cb21e01	0.021742823
153	0x3da0080c	0.07814035
154	0x3d13a972	0.036050268
155	0x3d91fdc5	0.07128481
156	0x3d3a7524	0.04552187
157	0x3a72cb07	0.0009261821
158	0x3cfbbcc5	0.03072966
159	0x3d5a1692	0.05324418
160	0x3c9095eb	0.017649611
161	0x3d916aa2	0.07100417
162	0x3d77d040	0.060501337
163	0x3d16a634	0.036779597
164	0x3ce105b2	0.027468536
165	0x3cd78ccf	0.02631226
166	0x3c29ac28	0.010355987
167	0x3c7e6920	0.015527993
168	0x3d69743a	0.056995608
169	0x3d41b2da	0.047289707
170	0x3de7074e	0.1128069
171	0x3d5d2790	0.053992808
172	0x3cd0edc3	0.025503999
173	0x3d551dd3	0.052030396
174	0x3d437257	0.047716465
175	0x3cd92582	0.026507143
176	0x3d91e67c	0.071240395
177	0x3d45d520	0.048298955
178	0x3c78ebc7	0.015192932
179	0x3d91fcf6	0.071283266
180	0x3cca75cb	0.024714371
181	0x3c644c36	0.013934186
182	0x3d185937	0.037194457
183	0x3c3a85cd	0.01138444
184	0x3b12370d	0.0022310645
185	0x3d2ab532	0.041676708
186	0x3ccf3145	0.025292048
187	0x3cb30f00	0.021857738
188	0x3d704344	0.0586579
189	0xbbfe45e8	-0.0077597983
190	0x3cb9e8ca	0.02269401
191	0x3ca7ac1c	0.02046781
192	0x3c75ee4d	0.015010429
193	0x3d095744	0.03353049
194	0x3bbdfffc	0.005798338
195	0x3ba10895	0.004914353
196	0x3ca13217	0.019677205
197	0xbd28f7b3	-0.04125185
198	0x3cb3808b	0.02191188
199	0x3c272a64	0.010202978
200	0x3d13e14e	0.03610354
201	0xbbe524f6	-0.0069929315
202	0xbc87cb67	-0.016576482
203	0x3d0c4f1d	0.034255136
204	0xbafa0265	-0.00190742
205	0xbbdba8fd	-0.0067034946
206	0x3d8cecf4	0.06881133
207	0xbce5d11b	-0.02805381
208	0xbcc17d08	-0.02361919
209	0xbd74a628	-0.05972877
210	0xbc42cf9d	-0.011890319
211	0xbcc2119d	-0.02369004
212	0xbdb31ed8	-0.08746117
213	0xbcb1613b	-0.021652808
214	0xbd588f31	-0.052870933
215	0xbdecc008	-0.115600646
216	0xbdbb7089	-0.09152324
217	0xbde5f505	-0.112283744
218	0xbe09191a	-0.13388482
219	0xbd2e4a53	-0.04255135
220	0xbd805692	-0.06266512
221	0xbd907e92	-0.07055391
222	0xbd237102	-0.039902695
223	0xbd4e1249	-0.050310407
224	0xbd5ff45b	-0.054676395
225	0xb9dcfb35	-0.00042148834
226	0xbca524e6	-0.020159196
227	0x3a843b8d	0.0010088548
228	0xbd6a6d9d	-0.05723344
229	0xbd8234ea	-0.06357749
230	0xbd29c907	-0.04145148
231	0xbd5518a1	-0.05202544
232	0xbd70194f	-0.058617886
233	0xbd301112	-0.04298503
234	0x3bb56201	0.0055353646
235	0x3c3a478f	0.0113696
236	0x3cd968f9	0.026539313
237	0x3cd77937	0.026302917
238	0x3c87e726	0.016589712
239	0xbaa253e6	-0.0012384623
240	0xbd80cc86	-0.0628901
241	0xbdb7416c	-0.08948025
242	0xbe0c6ddb	-0.13713782
243	0x3d2016bf	0.039084192
244	0x3c8f8e4c	0.017523907
245	0x3ce4f67b	0.027949562
246	0x3c8a017e	0.016846415
247	0x3b8c9c46	0.00429109
248	0xbbc3cd7f	-0.005975425
249	0x3c82ae16	0.015952151
250	0x3bdf5f8c	0.00681681
251	0x3cdb1a5b	0.026745966
252	0xbb985a9f	-0.0046494748
253	0xbc0a8563	-0.008454653
254	0x3d0aab84	0.033854976
255	0xbc82d879	-0.015972363

convblock7.2.weight f4 [16]
0	0x3fa57160	1.2925224
1	0x3fc517df	1.539791
2	0x3fa4023c	1.2813182
3	0x3f9b63ea	1.2139866
4	0x3fad05a5	1.3517348
5	0x3fad161f	1.3522376
6	0x3faa64db	1.3312029
7	0x3fa0b57e	1.2555387
8	0x3f874b78	1.0569906
9	0x3f935528	1.1510363
10	0x3f983dbd	1.1893841
11	0x3f8dcb61	1.1077691
12	0x3f71cfde	0.94457805
13	0x3f85b760	1.0446587
14	0x3f9db54b	1.2320951
15	0x3f8b5021	1.0883828

convblock7.2.bias f4 [16]
0	0xbd7d3207	-0.061815288
1	0x3c5a48d1	0.013323025
2	0xbdc7b8e3	-0.09752061
3	0xbd863660	-0.0655334
4	0xbbabc8be	-0.005242436
5	0x3d61b311	0.05510241
6	0xbd3a6024	-0.045501843
7	0x3ce46c8b	0.027883789
8	0x3c90773c	0.01763498
9	0x3c9e3dd4	0.019316591
10	0xbc2e50dc	-0.010639396
11	0x3caecc4b	0.021337649
12	0x3ce2e61d	0.027697617
13	0xbc9a0969	-0.018803315
14	0x3c82ba08	0.015957847
15	0xbc73989c	-0.014867928

convblock7.2.running_mean f4 [16]
0	0x3dada0ec	0.08477959
1	0x3e094414	0.13404876
2	0x3d84d6b0	0.06486261
3	0x3d9d7db6	0.07689993
4	0x3da3e8c8	0.08003384
5	0x3d75cd0b	0.060009997
6	0x3de58926	0.112077996
7	0x3d5ded78	0.054181546
8	0x3d891d89	0.066950865
9	0x3d9e26a9	0.077222176
10	0x3d654ecc	0.05598335
11	0x3d1347ec	0.035957262
12	0x3d2d96bc	0.04238008
13	0x3d965ba1	0.073416956
14	0x3d846341	0.06464244
15	0x3dc1a8ab	0.09455999

convblock7.2.running_var f4 [16]
0	0x3c17c2a8	0.009262718
1	0x3c8b66ae	0.017016735
2	0x3c275bc5	0.010214751
3	0x3c162311	0.009163634
4	0x3c22af0b	0.009929429
5	0x3c159340	0.009129345
6	0x3c497c80	0.0122977495
7	0x3bd90127	0.006622452
8	0x3bdb6f81	0.006696642
9	0x3c18c3b5	0.009324004
10	0x3bfa92eb	0.0076469085
11	0x3b4422eb	0.002992804
12	0x3ba59e6a	0.005054285
13	0x3bc49b34	0.005999947
14	0x3c225feb	0.009910564
15	0x3c22a09d	0.0099259885

convblock8.0.weight f4 [10, 16, 1, 1]
0	0x3f82dc21	1.0223428
1	0xbead73c9	-0.338774
2	0xbd30488e	-0.043037944
3	0x3f1c7bef	0.6112661
4	0xbe9338c1	-0.28754237
5	0xbe724bd0	-0.23661733
6	0x3eab8d7a	0.33506376
7	0xbe87ad8b	-0.2649959
8	0xbe86e074	-0.2634312
9	0xbd020a49	-0.03174809
10	0xbe9811bf	-0.2970104
11	0xbe21895e	-0.15775058
12	0x3dbf2fb2	0.09335269
13	0xbdf5a891	-0.11995042
14	0x3f1ab8cd	0.60438234
15	0xbe8a5bea	-0.2702325
16	0x3e17b0b4	0.148135
17	0xbebb0aad	-0.36531582
18	0x3e59f9eb	0.21286742
19	0xbea610b9	-0.32434633
20	0x3ea8de68	0.32982183
21	0xbdf9fd94	-0.12206569
22	0xbe95035f	-0.29104134
23	0xbe650daa	-0.22368494
24	0xbe20ff40	-0.1572237
25	0x3c1fd1fe	0.009754656
26	0xbea70fb4	-0.32629168
27	0x3f82a728	1.0207262
28	0xbe5291be	-0.20563409
29	0x3ef05787	0.46941778
30	0xbe92f6e2	-0.28703982
31	0xbea14daf	-0.3150458
32	0xbe8ea807	-0.2786257
33	0x3e2181f2	0.15772226
34	0xbe03a11a	-0.12854424
35	0xbe4d6df0	-0.20061469
36	0xbe715f76	-0.23571572
37	0xbe81a2a6	-0.25319403
38	0xbe979a7a	-0.29610044
39	0xbe936e46	-0.2879507
40	0x3f206d26	0.6266655
41	0xbd875a57	-0.06609028
42	0xbe75559f	-0.23958443
43	0x3d971347	0.07376724
44	0x3f34a835	0.70569164
45	0xbe1c7af5	-0.1528128
46	0x3f59b18e	0.8503655
47	0x3f07546a	0.5286318
48	0xbe8501ea	-0.25978023
49	0x3c898c67	0.016790582
50	0xbe817188	-0.2528193
51	0xbeb4fecc	-0.35350645
52	0xbebbc305	-0.36672226
53	0x3f944dac	1.1586204
54	0xbe8261bb	-0.25465187
55	0xbe87663d	-0.2644519
56	0x3ece1cb3	0.4025627
57	0xbe91c3b4	-0.28469622
58	0xbe49ef58	-0.19720209
59	0xbe3ed362	-0.18635324
60	0x3dce9c0a	0.10088356
61	0xbe1bddf2	-0.15221384
62	0xbe417092	-0.18890598
63	0xbebb384a	-0.36566383
64	0xbe2de25a	-0.16980878
65	0xbe726e07	-0.23674785
66	0x3d3ec67a	0.046576
67	0xbe110d23	-0.14165168
68	0x3f82a856	1.0207622
69	0xbe51c7db	-0.20486395
70	0xbed809bc	-0.42194927
71	0xbe289587	-0.1646329
72	0xbe2db0de	-0.16962
73	0xbd72a37c	-0.059237942
74	0x3f6c9321	0.92412
75	0xbe6088ca	-0.21927181
76	0xbe07287d	-0.13199039
77	0xbe000aa0	-0.12504053
78	0x3d4f8767	0.05066624
79	0x3e204f64	0.15655285
80	0xbe8b486b	-0.27203688
81	0xbf267731	-0.6502562
82	0xbe43851d	-0.19093747
83	0xbebf5b20	-0.3737421
84	0xbec0af1f	-0.37633607
85	0x3c8eb89f	0.017422019
86	0x3f099904	0.5374911
87	0x3f7dc2b9	0.9912525
88	0xbe6d68e4	-0.23184544
89	0xbe667325	-0.22504862
90	0x3cfa8dd9	0.030585216
91	0xbe074ca9	-0.13212837
92	0x3e6236e5	0.22091253
93	0xbe2658e1	-0.16244842
94	0xbe98baf9	-0.2983015
95	0xbe97b202	-0.29627997
96	0xbeb540fc	-0.35401142
97	0xbf07a6f8	-0.5298915
98	0x3f90cbc5	1.1312186
99	0x3f0c3a62	0.54776585
100	0xbe9efed0	-0.31053782
101	0xbea12335	-0.31472173
102	0xbe8650d7	-0.2623355
103	0x3d9570c5	0.072969
104	0xbe3e2820	-0.18569994
105	0x3dbda4f4	0.09259978
106	0xbe3ce5f4	-0.18447095
107	0xbe433132	-0.19061735
108	0x3b862ffe	0.0040950766
109	0xbe89a69c	-0.26884925
110	0xbe27e1b0	-0.16394687
111	0x3e233c6f	0.15941022
112	0x3ed7cd16	0.42148656
113	0x3f082d7f	0.5319442
114	0xbea9e068	-0.3317902
115	0xbebc6804	-0.36798108
116	0xbe0c4c69	-0.13701023
117	0xbe2d69cf	-0.16934894
118	0xbd822996	-0.06355588
119	0xbe035dd8	-0.12828767
120	0x3efa3df9	0.48875406
121	0xbe9582f9	-0.29201487
122	0xbd86c3bf	-0.06580304
123	0xbcae74cd	-0.02129593
124	0xbee4d0d8	-0.44690585
125	0x3f4e5aa6	0.8060707
126	0xbecb5e70	-0.39720488
127	0x3f1a68c8	0.60316133
128	0xbe75e8a2	-0.24014524
129	0x3f1c03f7	0.6094355
130	0xbe80cfe1	-0.251586
131	0x3ef68007	0.48144552
132	0xbd29ef67	-0.041488077
133	0x3eab7a37	0.3349168
134	0xbe57f319	-0.21088828
135	0x3ef2ea2f	0.47444293
136	0xbe886a2e	-0.2664351
137	0x3f82ba66	1.0213134
138	0xbe070318	-0.13184774
139	0xbcdbd959	-0.026837038
140	0xbe3a233a	-0.181775
141	0xbe483a59	-0.19553508
142	0x3b96b03c	0.0045986455
143	0x3dca7c36	0.098869726
144	0xbc5a2297	-0.013313911
145	0x3f54a267	0.83060306
146	0xbe388f94	-0.1802352
147	0x3dce0d00	0.10061073
148	0x3ec4d804	0.38446057
149	0xbe882525	-0.2659084
150	0x3f6ad23d	0.9172705
151	0xbe5f11d8	-0.2178415
152	0xbe598ad2	-0.21244362
153	0xbe5e6e54	-0.21721774
154	0x3eed0851	0.46295407
155	0xbe06b7db	-0.13156073
156	0xbe3ac022	-0.18237355
157	0xbdb66482	-0.08905889
158	0xbe3bc011	-0.18334986
159	0xbe980259	-0.2968929
